…
=======================] - 3s 82ms/step - loss: 0.4719 - accuracy: 0.7629 - val_loss: 0.6984 - val_accuracy: 0.6415\nEpoch 10/10\n30/30 [==============================] - 4s 118ms/step - loss: 0.4670 - accuracy: 0.7647 - val_loss: 0.6989 - val_accuracy: 0.6417\n</pre> In\u00a0[\u00a0]: Copied! <pre>model.summary()\n</pre> model.summary() <pre>Model: \"sequential_2\"\n_________________________________________________________________\n Layer (type)                Output Shape              Param #   \n=================================================================\n text_vectorization_2 (Text  (None, 10)                0         \n Vectorization)                                                  \n                                                                 \n embedding_1 (Embedding)     (None, 10, 16)            512000    \n                                                                 \n global_average_pooling1d (  (None, 16)                0         \n GlobalAveragePooling1D)                                         \n                                                                 \n dense_4 (Dense)             (None, 256)               4352      \n                                                                 \n dense_5 (Dense)             (None, 128)               32896     \n                                                                 \n dense_6 (Dense)             (None, 64)                8256      \n                                                                 \n dense_7 (Dense)             (None, 1)                 65        \n                                                                 \n=================================================================\nTotal params: 557569 (2.13 MB)\nTrainable params: 557569 (2.13 MB)\nNon-trainable params: 0 (0.00 Byte)\n_________________________________________________________________\n</pre> In\u00a0[\u00a0]: Copied! <pre>from matplotlib import pyplot as plt\nplt.plot
…
ype=tf.string, trainable=True)   model = tf.keras.models.Sequential([]) model.add(hub_layer)  model.add(tf.keras.layers.Dense(256, activation='relu')) model.add(tf.keras.layers.Dense(128, activation='relu')) model.add(tf.keras.layers.Dense(64, activation='relu')) model.add(tf.keras.layers.Dense(1, activation='sigmoid'))  model.summary()  <pre>Model: \"sequential_3\"\n_________________________________________________________________\n Layer (type)                Output Shape              Param #   \n=================================================================\n keras_layer (KerasLayer)    (None, 50)                48190600  \n                                                                 \n dense_8 (Dense)             (None, 256)               13056     \n                                                                 \n dense_9 (Dense)             (None, 128)               32896     \n                                                                 \n dense_10 (Dense)            (None, 64)                8256      \n                                                                 \n dense_11 (Dense)            (None, 1)                 65        \n                                                                 \n=================================================================\nTotal params: 48244873 (184.04 MB)\nTrainable params: 48244873 (184.04 MB)\nNon-trainable params: 0 (0.00 Byte)\n_________________________________________________________________\n</pre> In\u00a0[\u00a0]: Copied! <pre>model.compile(optimizer='adam',\n     
…
=[],                            dtype=tf.string, trainable=True)   model = tf.keras.models.Sequential([]) model.add(hub_layer) model.add(tf.keras.layers.Reshape((50, 1))) model.add(tf.keras.layers.LSTM(16))  model.add(tf.keras.layers.Dense(16, activation='relu')) model.add(tf.keras.layers.Dense(1, activation='sigmoid'))  model.summary()  <pre>Model: \"sequential_5\"\n_________________________________________________________________\n Layer (type)                Output Shape              Param #   \n=================================================================\n keras_layer_2 (KerasLayer)  (None, 50)                48190600  \n                                                                 \n reshape_1 (Reshape)         (None, 50, 1)             0         \n                                                                 \n lstm_1 (LSTM)               (None, 16)                1152      \n                                                                 \n dense_14 (Dense)            (None, 16)                272       \n                                                                 \n dense_15 (Dense)            (None, 1)                 17        \n                                                                 \n=================================================================\nTotal params: 48192041 (183.84 MB)\nTrainable params: 48192041 (183.84 MB)\nNon-trainable params: 0 (0.00 Byte)\n_________________________________________________________________\n</pre> In\u00a0[\u00a0]: Copied! <pre>model.compile(optimizer=tf.keras.optim
…
keras.layers.Bidirectional(tf.keras.layers.LSTM(32, return_sequences = True))) model.add(tf.keras.layers.Bidirectional(tf.keras.layers.LSTM(16, return_sequences = True))) model.add(tf.keras.layers.Flatten())  model.add(tf.keras.layers.Dense(8, activation='relu')) model.add(tf.keras.layers.Dense(1, activation='sigmoid'))  model.summary()  <pre>Model: \"sequential_6\"\n_________________________________________________________________\n Layer (type)                Output Shape              Param #   \n=================================================================\n keras_layer_3 (KerasLayer)  (None, 50)                48190600  \n                                                                 \n reshape_2 (Reshape)         (None, 50, 1)             0         \n                                                                 \n bidirectional (Bidirection  (None, 50, 64)            8704      \n al)                                                             \n                                                                 \n bidirectional_1 (Bidirecti  (None, 50, 32)            10368     \n onal)                                                           \n                                                                 \n flatten (Flatten)           (None, 1600)              0         \n                                                                 \n dense_16 (Dense)            (None, 8)                 12808     \n                                                                 \n dense_17 (Dense)            (None, 1)                 9         \n                                                                 \n=================================================================\nTotal params: 48222489 (183.95 MB)\nTrainable params: 48222489 (183.95 MB)\nNon-trainable params: 0 (0.00 Byte)\n_________________________________________________________________\n</pre> In\u00a0[\u00a0]: Copied! <pre>model.compile(optimizer=tf.keras.opti
…
odel.add(Conv2D(128, kernel_size=3, activation='relu')) model.add(MaxPooling2D(2)) model.add(BatchNormalization()) model.add(Dropout(0.2))  model.add(Flatten()) model.add(Dropout(0.5)) model.add(Dense(512, activation='relu')) model.add(Dense(1, activation='sigmoid'))    In\u00a0[\u00a0]: Copied! <pre>model.summary()\n</pre> model.summary() <pre>Model: \"sequential\"\n_________________________________________________________________\n Layer (type)                Output Shape              Param #   \n=================================================================\n conv2d (Conv2D)             (None, 148, 148, 32)      896       \n                                                                 \n max_pooling2d (MaxPooling2  (None, 74, 74, 32)        0         \n D)                                                              \n                                                                 \n conv2d_1 (Conv2D)           (None, 72, 72, 64)        18496     \n                                                                 \n max_pooling2d_1 (MaxPoolin  (None, 36, 36, 64)        0         \n g2D)                                                            \n                                                                 \n conv2d_2 (Conv2D)           (None, 34, 34, 128)       73856     \n                                                                 \n max_pooling2d_2 (MaxPoolin  (None, 17, 17, 128)       0         \n g2D)                                                            \n                                                                 \n flatten (Flatten)           (None, 36992)             0         \n                                                                 \n dropout (Dropout)           (None, 36992)             0         \n                                                                 \n dense (Dense)               (None, 512)               18940416  \n                                                                 \n dense_1 (Dense)             (None, 1)                 513       \n                                                                 \n=================================================================\nTotal params: 19034177 (72.61 MB)\nTrainable params: 19034177 (72.61 MB)\nNon-trainable params: 0 (0.00 Byte)\n_________________________________________________________________\n</pre> In\u00a0[\u00a0]: Copied! <pre>model.compile(loss='binary_crossentropy',
…
